checkpoint.pth (torch_old, 28405 bytes, 6 tensors)

fc1.weight f4 [64, 37]
0	0x3d5627c7	0.05228403
1	0x3dbba6d2	0.09162678
2	0xbe10c8b3	-0.1413906
3	0xbefd11ad	-0.49427548
4	0xbebaab14	-0.36458647
5	0x3dfdd432	0.12393989
6	0xbcd6c955	-0.02621905
7	0xbd616adb	-0.055033546
8	0x3def5789	0.11686618
9	0xbdb0f494	-0.086403996
10	0x3dc60157	0.09668224
11	0xbe445dc9	-0.19176401
12	0xbea2092d	-0.31647626
13	0xbde3fd21	-0.11132265
14	0xbe4ca7ed	-0.19985934
15	0xbe1feeef	-0.1561849
16	0x3e2f4cf0	0.17119193
17	0xbe4e498b	-0.20145242
18	0x3ea31f7a	0.31859952
19	0x3e064ac1	0.13114454
20	0x3e6f24c4	0.23353869
21	0xbbeb44d5	-0.0071798363
22	0x3dd8f7c3	0.10594132
23	0xbd80a354	-0.06281152
24	0x3e2f9f2f	0.17150567
25	0xbe6dac20	-0.23210192
26	0x3ce2c893	0.027683532
27	0x3e1c4015	0.1525882
28	0xbe8850e7	-0.26624224
29	0xbe8c1c37	-0.27365276
30	0xbac5705f	-0.0015063396
31	0x3e032b5e	0.12809512
32	0xbe2d1b4f	-0.16904949
33	0x3b9b6d8a	0.0047432827
34	0xbcbe180b	-0.023204824
35	0xbdff4017	-0.12463396
36	0xbdbb1ae9	-0.09135992
37	0x3e2243f3	0.15846233
38	0xbda9c943	-0.08290341
39	0x3b494a9c	0.0030714637
40	0x3e26d153	0.16290788
41	0xbe9999a9	-0.30000046
42	0x3bb05e6a	0.005382349
43	0xbe29be60	-0.16576529
44	0xbd6567c7	-0.056007173
45	0xbe164016	-0.14672884
46	0xbe835d10	-0.2565694
47	0x3df4610c	0.11932573
48	0xbd3f9a9b	-0.046778303
49	0xbd1647f9	-0.036689732
50	0x3d7fa13a	0.062409617
51	0x3d96013e	0.07324456
52	0xbc142011	-0.009040848
53	0xbdf593d4	-0.119910866
54	0x3e34a401	0.17640688
55	0x3e09672e	0.13418266
56	0xbe8a13e6	-0.26968306
57	0xbd73ef52	-0.059554406
58	0xbd4c632a	-0.049899258
59	0xbdea87f9	-0.11451716
60	0xbe2742c2	-0.1633406
61	0x3e1810fd	0.1485023
62	0xbe3585e5	-0.17726858
63	0x3df85921	0.12126375
64	0x3db1197c	0.08647439
65	0xbd5a6b6f	-0.053325113
66	0xbe8f4a7e	-0.2798652
67	0x3d1b70d2	0.03794939
68	0x3d097ea0	0.033568025
69	0x3da3c897	0.07997244
70	0x3e06dfe6	0.13171348
71	0x3d003b2b	0.031306427
72	0x3e91c7fe	0.28472894
73	0xbd0930a2	-0.033493645
74	0x3caea64c	0.02131953
75	0x3e55f231	0.2089317
76	0x3c73f340	0.014889538
77	0x3e831197	0.25599357
78	0x3e2f4eeb	0.17119949
79	0xbefa132f	-0.4884276
80	0x3e4347c9	0.19070353
81	0x3e64f7b3	0.22360115
82	0x3d8930da	0.06698771
83	0xbe03562d	-0.12825842
84	0xbd3210e0	-0.043473125
85	0x3e02a5c2	0.12758544
86	0x3d9d0dd1	0.07668651
87	0x3cbe396c	0.02322074
88	0x3d5bb248	0.05363682
89	0xbd4905d7	-0.049077835
90	0x3cae9a43	0.021313792
91	0x3d9efc81	0.07763005
92	0x3e9b1914	0.3029257
93	0x3eee644a	0.4656089
94	0xbe80d9e8	-0.2516625
95	0x3d593ec7	0.053038385
96	0x3d71a14e	0.058991723
97	0x3dcba40b	0.09943398
98	0x3e33698d	0.17520733
99	0xbd119cdd	-0.035549987
100	0x3d8ed07f	0.06973361
101	0x3db4c5f6	0.088268206
102	0x3d8f8b51	0.07008994
103	0xbed5baa7	-0.41743967
104	0xbe128025	-0.14306696
105	0x3c739014	0.014865894
106	0xbe0ced97	-0.13762508
107	0x3e28c9f5	0.1648329
108	0x3d6068ef	0.054787572
109	0x3d1ef792	0.03881032
110	0xbc95fa3b	-0.018307796
111	0x3e0f65c2	0.14003661
112	0x3d591045	0.05299403
113	0x3d3f9dbc	0.046781287
114	0x3d5ce497	0.053928938
115	0xbe0298c7	-0.12753592
116	0xbdd5ff0c	-0.10449037
117	0x3d68999f	0.05678713
118	0x3d0a7cde	0.03381049
119	0x3e1a9f2d	0.15099783
120	0x3df8ff8a	0.12158115
121	0xbca76b8e	-0.020437028
122	0x3d131b66	0.0359148
123	0x3d883d36	0.066523
124	0xbc8eb9de	-0.017422613
125	0x3ce3ea01	0.027821543
126	0xbdc69e36	-0.09698145
127	0x3cda12fc	0.02662038
128	0xbde17d84	-0.11010268
129	0xbd6cc134	-0.05780144
130	0xbd782b08	-0.060587913
131	0x3d92fcba	0.0717711
132	0xbd88e48a	-0.06684215
133	0x3dd2fc11	0.10301984
134	0x3e23e859	0.16006602
135	0x3dab2ff9	0.083587594
136	0xbde43f97	-0.11144941
137	0x3db8f4b6	0.0903105
138	0x3e0a8bbd	0.13529868
139	0x3e75d01e	0.24005172
140	0x3e840d6a	0.25791484
141	0x3e83fdad	0.25779477
142	0xbde773ec	-0.11301407
143	0x3d20a261	0.039217357
144	0xbf2330b5	-0.63746196
145	0xc004f60d	-2.0775177
146	0xbc8b8ddc	-0.017035417
147	0x3be147f7	0.006875034
148	0xbe2b160a	-0.16707626
149	0xbdb74ff8	-0.089508
150	0xbe6f83ad	-0.23390074
151	0xbe004770	-0.12527251
152	0xbe84ca16	-0.2593543
153	0xbcd6be97	-0.026213927
154	0x3e927c38	0.28610396
155	0xbe842d89	-0.2581599
156	0xbedd6258	-0.43239093
157	0x3d560aa0	0.052256227
158	0xbe175a14	-0.14780456
159	0x3e046727	0.12929974
160	0x3d932933	0.071855925
161	0xbf35227a	-0.7075573
162	0xbebf8d7e	-0.37412637
163	0xbd18a1c2	-0.03726364
164	0x3cbddf55	0.023177782
165	0xbe5e34d3	-0.21699838
166	0xbeae67bb	-0.34063515
167	0xbd2e2d0f	-0.04252344
168	0x3ad8ea0f	0.0016549247
169	0x3a610382	0.00085835916
170	0xbe103a66	-0.14084777
171	0xbe56bf01	-0.209713
172	0xbf09b0ab	-0.537852
173	0x3e0000ab	0.12500255
174	0xbee6a1b0	-0.45045233
175	0xbebba645	-0.3665029
176	0x3b82fbca	0.0039973008
177	0xbfad8464	-1.3556027
178	0x3e244fc0	0.16046047
179	0xbcde611f	-0.02714592
180	0xbee9dec7	-0.45677778
181	0xbe740ebc	-0.23833746
182	0xbe3c70e8	-0.18402445
183	0xbe01d84b	-0.12680165
184	0x3ca51d40	0.020155549
185	0x3ccae929	0.024769383
186	0xbdbd9061	-0.09256054
187	0xbd655d08	-0.055996925
188	0x3c946546	0.018114697
189	0x3ec439ce	0.3832535
190	0x3e3bc4f4	0.1833685
191	0xbe6ef15b	-0.23334257
192	0xbe60ba41	-0.2194605
193	0xbc7fec5d	-0.015620318
194	0xbf52296a	-0.8209444
195	0xbdd0f73c	-0.10203406
196	0xbd553c12	-0.05205924
197	0xbd99d4c7	-0.07511287
198	0xbc612833	-0.013742494
199	0x3d1da505	0.038487453
200	0xbe2b47b0	-0.16726565
201	0x3e28cb94	0.16483909
202	0x3bd30b3a	0.0064405473
203	0xbdfa1b47	-0.12212234
204	0x3d330015	0.04370125
205	0x3e457951	0.1928456
206	0xbde629b4	-0.11238423
207	0xbd83afef	-0.06430041
208	0x3d85ba15	0.06529633
209	0x3d54ce33	0.05195446
210	0xbd86b445	-0.065773524
211	0x3d89f952	0.06737007
212	0xbe562ff3	-0.20916729
213	0x3e82fe63	0.25584707
214	0x3e1c78bf	0.15280436
215	0xbe05fd54	-0.13084918
216	0x3c8b5cd9	0.017012047
217	0xbdb361d5	-0.08758894
218	0x3e8368b5	0.25665823
219	0xbe3bad66	-0.18327865
220	0x3ca23b52	0.019803677
221	0x3bffec3c	0.0078101438
222	0xbe344f37	-0.17608343
223	0xbcaad680	-0.020854235
224	0x3bb7e9d0	0.0056125894
225	0xbe087627	-0.13326322
226	0xbe7ddf8d	-0.24792309
227	0xbe55d46e	-0.20881817
228	0xbe237913	-0.15964155
229	0x3e05b8c9	0.13058771
230	0xbe136ee8	-0.14397776
231	0x3efade12	0.4899755
232	0xbdeec1ae	-0.11658035
233	0xbc7a5ca2	-0.015280874
234	0x3d0bfcbd	0.034176577
235	0x3df6c1d5	0.12048689
236	0x3ecd050b	0.4004291
237	0xbeb1b760	-0.34710217
238	0x3ccbff51	0.024902018
239	0xbd2bceed	-0.041945387
240	0x3d65d622	0.056112416
241	0xbe453c46	-0.19261274
242	0xbe2f3976	-0.17111763
243	0xbe31ce9d	-0.17363973
244	0xbc37c49f	-0.011216312
245	0x3d1be109	0.038056407
246	0x3e9f6034	0.31128085
247	0xbecef78a	-0.40423232
248	0xbd58b94b	-0.052911084
249	0xbd58eca5	-0.052960057
250	0x3ce1b8cd	0.02755394
251	0x3d28c909	0.041207347
252	0xbd6d2e61	-0.05790556
253	0xbe8b3f8e	-0.27196926
254	0xbcd4836e	-0.025941577
255	0x3e2b0177	0.16699778

fc1.bias f4 [64]
0	0x3d94cac3	0.07265236
1	0xbd904067	-0.07043534
2	0xbde84cc0	-0.11342764
3	0xbcdb1732	-0.026744459
4	0x3e162e14	0.14666015
5	0xbd965b05	-0.07341579
6	0xbe45064b	-0.19240682
7	0x3da140ae	0.07873665
8	0x3da6525c	0.081211776
9	0xbe48c744	-0.19607264
10	0x3dedcf16	0.11611764
11	0x3e739e8c	0.2379095
12	0x3eb06acf	0.34456488
13	0x3e8c38b9	0.27387026
14	0xbcc52cf4	-0.024069287
15	0xbbe2f759	-0.006926459
16	0x3d8ef158	0.069796264
17	0x3ce801ed	0.02832123
18	0x3cb5f6d5	0.022212425
19	0xbe405f61	-0.18786384
20	0xbd441ce0	-0.0478791
21	0x3d9ce84e	0.07661496
22	0x3c66d09f	0.014087825
23	0xbd3064e3	-0.043064963
24	0xbe15c63e	-0.14626405
25	0x3d84debc	0.06487796
26	0xbdc609f6	-0.09669869
27	0xbe46fdc3	-0.1943274
28	0x3e168060	0.14697409
29	0x3e18fe4a	0.14940754
30	0xbde5a356	-0.112127945
31	0xbe277123	-0.16351752
32	0x3e4c2d69	0.19939198
33	0xbd5b693a	-0.05356715
34	0xbdbf074b	-0.09327563
35	0x3d174262	0.036928542
36	0xbae741bd	-0.0017643493
37	0x3afc9a7a	0.0019272112
38	0xbc49d0b7	-0.012317828
39	0xbe3b45e4	-0.1828838
40	0xbd30f59a	-0.043202974
41	0x3c8e7b28	0.01739271
42	0xbe49a41e	-0.19691512
43	0x3dfb855d	0.122812964
44	0xbc03a83f	-0.008035718
45	0xbe0dd701	-0.13851549
46	0x3da02d06	0.078210875
47	0xbdd5777a	-0.10423179
48	0xbd4ef056	-0.05052217
49	0x3d755e4d	0.059904385
50	0xbdb0c577	-0.086314134
51	0x3d942cd4	0.07235113
52	0x3c6d3968	0.014479019
53	0xbd354b99	-0.04426155
54	0xbdab163e	-0.08353852
55	0x3db17ee1	0.08666778
56	0x3deb5744	0.11491254
57	0xbdd916e1	-0.10600067
58	0xbdfff08c	-0.124970526
59	0xbd866950	-0.065630555
60	0xbc889ac7	-0.016675366
61	0x3e049e52	0.1295102
62	0x3e06bf67	0.13158952
63	0x3debbf79	0.1151113

fc2.weight f4 [64, 64]
0	0xbcc2b39d	-0.023767287
1	0xbc861466	-0.016367149
2	0x3db475bb	0.08811518
3	0xbe331e32	-0.17491987
4	0x3e8fd0bb	0.28088936
5	0xbcc27e28	-0.023741797
6	0xbdb99f93	-0.090636395
7	0xbdadf3b3	-0.084937476
8	0xbd80e3fb	-0.06293484
9	0xbd254c81	-0.040356163
10	0x3db68fee	0.08914171
11	0xbe185d5e	-0.14879367
12	0xbd8f521c	-0.06998083
13	0x3de9a843	0.114090465
14	0xbe75951e	-0.23982665
15	0xbdc4f0b4	-0.09616223
16	0xbe52050e	-0.2050974
17	0xbf31e727	-0.69493335
18	0x3e77717e	0.24164388
19	0x3e187811	0.14889552
20	0xbe1765fb	-0.14784996
21	0xbd01210c	-0.031525657
22	0x3eeaad07	0.45835134
23	0x3e0ee912	0.13956097
24	0xbe3a2c15	-0.18180878
25	0xbd8222dd	-0.06354306
26	0x3e85a4e9	0.2610238
27	0x3e577cb0	0.21043658
28	0x3d6f3921	0.05840409
29	0xbe04ad49	-0.12956728
30	0x3e337066	0.17523345
31	0xbdc9d166	-0.09854393
32	0x3d959023	0.073028825
33	0xbe22ff3b	-0.15917675
34	0xbdd44973	-0.10365572
35	0x3e8e0834	0.27740633
36	0xbdce16af	-0.1006292
37	0x3e8b73dd	0.27236834
38	0xbdd702a6	-0.10498552
39	0xbcadb88b	-0.021206161
40	0xbe960451	-0.29300168
41	0x3c5ca8f8	0.01346802
42	0x3e50d6c3	0.20394425
43	0xbe1a5c9e	-0.15074393
44	0xbd682f8f	-0.05668598
45	0xbe7e7429	-0.24848999
46	0xbdcf8a1e	-0.10133766
47	0x3da02f19	0.07821483
48	0xbcdec334	-0.02719269
49	0x3d649200	0.0558033
50	0xbd613103	-0.05497838
51	0xbdde7871	-0.10862816
52	0xbe429c05	-0.19004829
53	0x3f0307fa	0.51184046
54	0x3ddfd600	0.10929489
55	0xbd3c7f7a	-0.04602001
56	0xbdeec6bb	-0.116589986
57	0xbe18ea77	-0.14933191
58	0xbdc684f6	-0.09693329
59	0xbda23d17	-0.07921808
60	0x3ddb5104	0.10708812
61	0x3dc508cd	0.09620819
62	0xbd682b48	-0.0566819
63	0xbd60c433	-0.05487461
64	0xbd915537	-0.070963316
65	0xbc8f535d	-0.017495805
66	0x3e076d5b	0.1322531
67	0xbd36a722	-0.044592984
68	0xbd216682	-0.0394044
69	0x3df5d5d7	0.12003677
70	0xbeb132d9	-0.34609106
71	0xbe050ab6	-0.12992367
72	0xbe221fc9	-0.15832438
73	0xbe675781	-0.22591974
74	0x3e1d3e2c	0.15355748
75	0x3eda9530	0.42691946
76	0xbe834cf8	-0.2564466
77	0x3d6f7576	0.05846163
78	0xbd4bce26	-0.049757145
79	0xbda2e8f8	-0.079545915
80	0x3dd50418	0.104011714
81	0xbe3002d7	-0.17188583
82	0xbe28fefd	-0.1650352
83	0xbe276614	-0.16347533
84	0x3e7f20df	0.24914883
85	0xbdbdc08a	-0.092652395
86	0xbdbdf9c7	-0.09276157
87	0xbe329620	-0.1744008
88	0xbded02d6	-0.115728065
89	0xbd301bb2	-0.042995162
90	0xbeafb7b2	-0.34319836
91	0x3cf0c73a	0.029391874
92	0x3e17388b	0.14767663
93	0xbe5e08a8	-0.2168299
94	0xbd045702	-0.03230954
95	0xbd98669c	-0.07441446
96	0xbe8755db	-0.2643269
97	0x3d99a07f	0.07501315
98	0xbe2b2ac6	-0.16715536
99	0xbe4d4a99	-0.20047988
100	0xbe665679	-0.22493924
101	0xbd283d59	-0.04107413
102	0xbdf730a0	-0.12069821
103	0xbdc39935	-0.09550706
104	0xbe3ab698	-0.18233716
105	0x3eb99dfb	0.36253342
106	0xbe68c18e	-0.22730085
107	0xbe786101	-0.24255754
108	0xbd5c0d3f	-0.05372357
109	0xbd66a708	-0.056311637
110	0xbce7ec3c	-0.028310888
111	0xbe34d050	-0.1765759
112	0xbe16ac61	-0.14714195
113	0xbe1fb5d0	-0.155967
114	0xbc576cc5	-0.013148491
115	0x3e303216	0.17206606
116	0xbddeee91	-0.10885347
117	0xbef81482	-0.48453146
118	0x3d9b930a	0.07596405
119	0xbd050b13	-0.032481264
120	0xbe156d62	-0.14592507
121	0xbdcc64cb	-0.09980162
122	0x3e24ee05	0.16106422
123	0xbe092f43	-0.13396935
124	0x3caa5e45	0.020796904
125	0xbb1654eb	-0.0022938799
126	0x3c2b6e77	0.010463349
127	0xbd8e042d	-0.0693439
128	0xbd717a3a	-0.058954455
129	0xbe21a6e8	-0.15786326
130	0x3e4dd303	0.20100026
131	0xbe92c796	-0.28667897
132	0x3ef21884	0.4728433
133	0x3e165ed4	0.14684612
134	0xbd4947ed	-0.04914086
135	0x3d016123	0.031586777
136	0xbd73c996	-0.05951842
137	0xbbfb2710	-0.0076645687
138	0x3d6b3154	0.05742009
139	0xbe9220b6	-0.2854058
140	0x3db45262	0.08804776
141	0x3cd30c37	0.02576266
142	0xbe17fb4d	-0.14841957
143	0xbd9decb4	-0.07711163
144	0xbe40b702	-0.18819812
145	0x3d5185a4	0.05115284
146	0x3e5268b2	0.2054775
147	0xbe7e08dd	-0.24808069
148	0xbda2d21f	-0.07950234
149	0x3d916d9d	0.07100985
150	0xbe950f25	-0.29113117
151	0xbd3683fd	-0.044559468
152	0xbbb0900c	-0.0053882655
153	0xbcffe750	-0.031238228
154	0xbd7db843	-0.061943304
155	0xbccd0dd4	-0.025031008
156	0xbeb8531b	-0.36000904
157	0x398404a0	0.00025180448
158	0xbda74c29	-0.08168823
159	0x3dd54d95	0.10415188
160	0xbe8cd809	-0.27508572
161	0xbdc77a5a	-0.097401336
162	0xbe11db38	-0.14243782
163	0xbd9cbce4	-0.076532155
164	0x3d8395dc	0.06425068
165	0x3e770249	0.24121965
166	0x3eabd5db	0.33561596
167	0xbce7f552	-0.02831522
168	0x3e3cb6b8	0.18429077
169	0xbeefaed4	-0.4681307
170	0xbca3907a	-0.019966353
171	0xbe28119a	-0.16412964
172	0xbe71f21e	-0.23627517
173	0xbe8b6c5d	-0.27231112
174	0x3de32a41	0.11092044
175	0x3e2707a8	0.16311514
176	0xbe83bb83	-0.25728998
177	0xbe201ac3	-0.15635209
178	0xbe108897	-0.14114605
179	0x3da44e04	0.08022693
180	0xbf1bf9a5	-0.609278
181	0xbd378ba8	-0.04481092
182	0x3a395fdd	0.00070714747
183	0x3c6bdb4e	0.014395548
184	0x3d42917a	0.04750202
185	0x3e281170	0.16412902
186	0xbe1f19ce	-0.15537187
187	0x3e9390a9	0.28821304
188	0x3dccf4b0	0.10007608
189	0xbe3aea00	-0.18253326
190	0xbde24c33	-0.1104969
191	0xbd39ea23	-0.045389306
192	0xbd925d84	-0.07146743
193	0x3beecbc4	0.0072874743
194	0xbb9b731c	-0.0047439467
195	0xbe7deab9	-0.24796571
196	0x3d5ab0c9	0.05339125
197	0xbd3fc6b7	-0.04682037
198	0xbe44b87a	-0.19210997
199	0x3e707359	0.23481502
200	0xbda41108	-0.08011061
201	0x3dc1b41a	0.0945818
202	0x3d921cc1	0.071343906
203	0x3ed9eb80	0.42562485
204	0xbe1c7cbb	-0.15281956
205	0x3d8f7307	0.070043616
206	0x3d33cdf0	0.04389757
207	0xbe1ac219	-0.15113105
208	0xbe59dbc4	-0.2127524
209	0xbea4bd36	-0.32175606
210	0xbe608dff	-0.21929167
211	0x3c0cee00	0.0086016655
212	0x3e28c9f7	0.16483293
213	0x3e946764	0.2898513
214	0xbde8af7f	-0.11361598
215	0xbe01f59b	-0.12691347
216	0xbe00123f	-0.1250696
217	0x3d91bd84	0.07116225
218	0x3e83a83f	0.257143
219	0x3d8e8f28	0.06960899
220	0x3e332eb8	0.1749829
221	0xbe781b2a	-0.24229112
222	0xbe38d2b1	-0.18049122
223	0xbb985972	-0.0046493346
224	0x3d761087	0.060074355
225	0xbcdd6579	-0.027025925
226	0x3e7c4c68	0.24638522
227	0xbd99f356	-0.07517116
228	0x3cd1ac43	0.025594836
229	0x3d509536	0.05092355
230	0x3ef16589	0.47147778
231	0x3c949a09	0.018139856
232	0x3d7ffc2f	0.06249636
233	0x3e8926e6	0.2678749
234	0xbde5f61a	-0.11228581
235	0x3d9b58a5	0.07585267
236	0x3d0fd83d	0.03511833
237	0xbc994f27	-0.0187145
238	0x3d02b711	0.031912867
239	0x3e6558c6	0.22397146
240	0xbdb6f1e0	-0.08932853
241	0x3d905925	0.07048253
242	0xbe08e006	-0.13366708
243	0x3dc6f3e0	0.09714484
244	0x3d8f2fd1	0.06991542
245	0xbf248c85	-0.64276916
246	0xbef09a68	-0.46992803
247	0x3d977aa4	0.07396439
248	0xbe166176	-0.14685616
249	0xbd55aa57	-0.0521644
250	0x3ceace01	0.028662683
251	0xbc060ae1	-0.008181305
252	0xbe29960a	-0.16561142
253	0x3beb182a	0.0071745114
254	0xbd429cd2	-0.047512837
255	0xbe27fb2b	-0.16404407

fc2.bias f4 [64]
0	0x3d26e540	0.040745974
1	0xbcd4244d	-0.025896216
2	0x3c121d68	0.008918144
3	0x3e0dbf7e	0.1384258
4	0x3ead09d0	0.3379655
5	0xbe3f442c	-0.1867835
6	0xbc9c3e2b	-0.019072613
7	0xbb2ec3cc	-0.0026666997
8	0x3ea9fc66	0.33200377
9	0x3f0a4e48	0.540257
10	0xbda539bc	-0.080676526
11	0x3e4796b1	0.19491078
12	0x3dfea2ce	0.12433396
13	0xbd9353ef	-0.071937434
14	0xbd8fefb1	-0.070281394
15	0x3e0610dd	0.1309237
16	0x3d8d3df4	0.06896582
17	0xbd1d67b3	-0.038428973
18	0xbe0f649a	-0.1400322
19	0x3e19b4db	0.15010397
20	0x3e82ffbe	0.2558574
21	0x3f1416bc	0.5784719
22	0xbe381e8b	-0.17980401
23	0xbe126636	-0.14296803
24	0xbd9ba6ff	-0.07600211
25	0xbe2067e6	-0.15664634
26	0xbb9d622c	-0.0048029628
27	0xbd804590	-0.06263268
28	0x3d91bce2	0.07116105
29	0x3de304e5	0.11084918
30	0x3d45f6ac	0.048330948
31	0xbd033640	-0.03203416
32	0xbdd5187b	-0.1040506
33	0x3dcc2673	0.09968271
34	0x3ca7883d	0.020450706
35	0xbdfc3253	-0.12314286
36	0x3cebd396	0.028787415
37	0xbe27e63c	-0.16396421
38	0xbdd8ec12	-0.10591902
39	0x3ce5c902	0.02804995
40	0xbe02e860	-0.12783957
41	0x3f1bb364	0.60820603
42	0x3ef61978	0.48066306
43	0xbdce750f	-0.10080921
44	0x3dbf8aca	0.09352644
45	0xbdcff3a0	-0.1015389
46	0x3ed90193	0.42384014
47	0xbe0c1e32	-0.13683394
48	0x3d11a182	0.035554416
49	0xbdaf18ec	-0.08549675
50	0x3c1ef478	0.009701841
51	0x3f100cf4	0.56269765
52	0x3e27866f	0.16359876
53	0xbe63b8e5	-0.222385
54	0x3df4c476	0.119515345
55	0xbdfd5821	-0.12370325
56	0xbe16b750	-0.14718366
57	0xbe151956	-0.14560446
58	0xbde7bdae	-0.113154754
59	0x3d384bed	0.044994283
60	0x3dd3c5e4	0.10340479
61	0x3ed326f6	0.41240662
62	0xbd58dfae	-0.052947693
63	0xbdf862fd	-0.121282555

fc3.weight f4 [4, 64]
0	0x3e782770	0.24233794
1	0x3e08339f	0.13300942
2	0x3dd3eb45	0.103476085
3	0x3e61ef76	0.22064003
4	0x3e56a983	0.20963101
5	0xbe8213fe	-0.25405878
6	0x3e9131d7	0.28358337
7	0xbe972d81	-0.29526904
8	0x3deeb84e	0.11656247
9	0x3e13df54	0.14440662
10	0x3e1c524c	0.15265769
11	0xba832be4	-0.0010007587
12	0x3e110e30	0.14165568
13	0x3e7caa8b	0.24674432
14	0x3ec4307b	0.38318238
15	0x3cc1d400	0.02366066
16	0x3e29e64a	0.16591755
17	0x3cb57336	0.022149663
18	0xbdd729f0	-0.10506046
19	0x3dea33e3	0.11435678
20	0x3d887ec6	0.06664805
21	0x3e730cc8	0.23735344
22	0xbe4e1506	-0.20125207
23	0xbe05efc1	-0.1307974
24	0x3e3c2535	0.18373568
25	0xbe1d1956	-0.15341696
26	0xbe0c18f0	-0.13681388
27	0xb9492484	-0.00019182457
28	0x3ef58f68	0.47960973
29	0x3efe4309	0.4966052
30	0xbf2472ca	-0.64237654
31	0x3ccf0883	0.025272613
32	0x3dac130a	0.08402069
33	0x3ead248f	0.33816954
34	0x3c3746d7	0.011186323
35	0xbe82cf36	-0.25548714
36	0x3e645a18	0.22299993
37	0xbe769ac8	-0.24082482
38	0xbe57f910	-0.21091104
39	0x3e86270d	0.26201668
40	0xbc7d811c	-0.015472677
41	0x3e3de44b	0.18544118
42	0x3e042f18	0.1290859
43	0xbe44a38e	-0.19203016
44	0x3e6457e1	0.22299148
45	0xbd38f42d	-0.04515474
46	0x3e5b85fc	0.2143783
47	0x3ef5dd1b	0.48020253
48	0xbd620618	-0.055181593
49	0x3db988b9	0.09059281
50	0x3e564b5f	0.2092719
51	0x3e095d96	0.13414606
52	0x3e76bc99	0.24095382
53	0xbdf2354d	-0.118265726
54	0x3cc8f695	0.024531642
55	0xbcc6aa7c	-0.024251215
56	0xbdbe5807	-0.09294134
57	0xbedf2c81	-0.4358864
58	0xbea032ee	-0.31288856
59	0x3e037c32	0.12840346
60	0xbe7a8713	-0.24465589
61	0x3e4181cc	0.1889717
62	0xbcfe57f3	-0.031047797
63	0x3d7d220c	0.061800048
64	0x3e14cb34	0.14530641
65	0x3e155a69	0.1458527
66	0x3e0df6a1	0.13863613
67	0x3e0463b2	0.12928656
68	0x3e5add7e	0.21373555
69	0xbead6551	-0.3386636
70	0x3ea2ed4c	0.31821668
71	0x3e008206	0.125496
72	0x3dd07516	0.10178582
73	0x3e1e8e2a	0.15483919
74	0x3ea5a317	0.3235099
75	0x3e2fbdeb	0.17162292
76	0x3e2ad5e2	0.16683152
77	0x3ec67bfe	0.38766474
78	0x3dd62c11	0.10457624
79	0x3e127ea0	0.14306116
80	0x3cbf27ec	0.023334466
81	0x3e949436	0.29019326
82	0xbe4d8832	-0.20071486
83	0x3d67b26f	0.056566652
84	0x3d0cf384	0.034411922
85	0x3e84fcbc	0.2597407
86	0xbcb4e6fa	-0.022082794
87	0xbe3725d4	-0.17885524
88	0x3d2af46e	0.041737013
89	0xbe6d5ace	-0.2317917
90	0xbce91347	-0.028451575
91	0xbe470be0	-0.19438124
92	0x3e71f6d7	0.23629318
93	0x3eeae70d	0.45879403
94	0xbbc598bb	-0.00603017
95	0x3e17e2c3	0.14832596
96	0x3e610f4b	0.2197849
97	0x3ea9323a	0.33046132
98	0x3d9be9f2	0.07612981
99	0xbe2c6a7f	-0.168375
100	0x3e60a2cf	0.21937107
101	0xbdf7a680	-0.12092304
102	0xbda166df	-0.07880949
103	0x3e74ea1c	0.2391743
104	0x3e8b89cd	0.2725357
105	0x3e5ed123	0.21759467
106	0x3de6ff7f	0.11279201
107	0xbe35ce40	-0.1775446
108	0x3e9d53df	0.3072805
109	0x3c5851c4	0.013203088
110	0x3e572551	0.21010329
111	0x3f081224	0.5315268
112	0x3d0eb110	0.03483683
113	0xbcb51800	-0.02210617
114	0x3e98b572	0.29825932
115	0x3dcc6ebb	0.09982058
116	0x3e13d55a	0.14436856
117	0xbdc28524	-0.09498051
118	0x3daa4461	0.083138235
119	0x3ca63cb9	0.020292627
120	0xbee4da1a	-0.44697648
121	0xbe0683e3	-0.13136248
122	0xbe7d78b0	-0.2475307
123	0x3de18ac9	0.11012799
124	0x3d883833	0.06651344
125	0x3dd82df7	0.10555642
126	0xbdb716c5	-0.0893989
127	0x3dc62768	0.09675485
128	0x3e8bd93f	0.27314183
129	0x3ee0a4e7	0.4387581
130	0x3ea58f93	0.323361
131	0x3e3cc4ee	0.18434498
132	0x3e233c93	0.15941076
133	0x3e1fe4db	0.15614645
134	0x3ec27366	0.37978667
135	0xbdd0dd25	-0.1019843
136	0x3cc1ad24	0.02364213
137	0x3e2e439a	0.17017975
138	0xbe8ac93f	-0.27106664
139	0x3f27c2cc	0.6553161
140	0x3e7c5b41	0.24644186
141	0xbe1e1e88	-0.15441334
142	0x3da9f3ae	0.08298431
143	0x3e633b32	0.2219055
144	0x3e41ffe7	0.18945275
145	0x3e487445	0.19575603
146	0x3e1fbc68	0.15599215
147	0x3d4ae92d	0.04953878
148	0x3e0fe400	0.14051819
149	0x3e711276	0.23542199
150	0xbf500d02	-0.8126985
151	0xbc791ce4	-0.015204642
152	0x3f2c3a10	0.67276096
153	0xbe814519	-0.2524803
154	0xbe758465	-0.23976286
155	0xbe95bfdb	-0.29247937
156	0x3d0124db	0.03152929
157	0x3f0b8195	0.544946
158	0xbea5af07	-0.32360098
159	0xbd0e09a4	-0.034677163
160	0xbe9b92d4	-0.30385458
161	0x3db7a1cf	0.089664094
162	0x3e689df2	0.22716501
163	0xbe141d4d	-0.14464302
164	0x3d940e5b	0.072293006
165	0xbe371793	-0.17880087
166	0xbe111cee	-0.14171192
167	0x3e608cbb	0.21928684
168	0xbebc2f89	-0.36755016
169	0x3e58a429	0.21156372
170	0x3e52102b	0.2051398
171	0xbdff80b4	-0.1247572
172	0x3d9d0ce3	0.076684736
173	0x3dd47ebd	0.10375736
174	0x3e458028	0.19287169
175	0x3f221b37	0.63322777
176	0x3df04371	0.117316134
177	0x3e75c065	0.23999174
178	0x3d6731dc	0.056444034
179	0x3e6bad6e	0.23015377
180	0x3cd13c1c	0.025541358
181	0x3df07c6d	0.11742482
182	0x3de5f59d	0.11228488
183	0x3c4e7429	0.012600937
184	0xbeff28e3	-0.49835882
185	0xbe5e26db	-0.2169451
186	0xbe1b2be3	-0.1515346
187	0x3e0474ae	0.12935135
188	0xbf0c9d27	-0.54927295
189	0x3e26bae2	0.16282228
190	0xbe433bc1	-0.19065763
191	0xbe3dc2e7	-0.1853138
192	0x3ef20527	0.47269556
193	0x3ef97d83	0.4872857
194	0x3c0aa229	0.008461514
195	0x3dd6799e	0.104724154
196	0x3df5a4d8	0.11994332
197	0x3df15587	0.11783891
198	0x3ea85bfd	0.3288268
199	0x3d714854	0.058906868
200	0x3e0ba505	0.13637169
201	0x3e6ee77d	0.23330493
202	0x3f33a410	0.70172215
203	0x3e0610a7	0.1309229
204	0x3e91507a	0.2838171
205	0xbe5bdd4b	-0.21471135
206	0x3ef1e93c	0.47248256
207	0x3e7a34b5	0.24434169
208	0x3e46236e	0.19349453
209	0x3e9cbb9f	0.30611894
210	0xbe909b60	-0.28243542
211	0x3e2e6f21	0.1703458
212	0x3ca1fe46	0.019774567
213	0x3e8ad792	0.27117592
214	0xbdc8faac	-0.09813437
215	0x3d8cea45	0.06880621
216	0x3d2d5c9a	0.04232464
217	0xbe995540	-0.29947853
218	0xbdee90cf	-0.11648714
219	0x3e1ce3bc	0.15321249
220	0x3e274b0b	0.1633722
221	0x3e3dd3f7	0.1853789
222	0xbea5a215	-0.3235022
223	0x3d87685b	0.06611701
224	0x3d63fecd	0.05566292
225	0x3eaffb05	0.343712
226	0x3d8c1968	0.06840783
227	0xbcc556e3	-0.024089282
228	0xbd21ba83	-0.039484512
229	0xbd9f27bd	-0.07771251
230	0x3e0376f6	0.12838349
231	0x3d80eb3d	0.06294868
232	0xbef9a0f5	-0.48755613
233	0x3e43e84b	0.19131581
234	0x3e36a795	0.17837365
235	0xbf0ab887	-0.54187816
236	0x3f0d5fba	0.5522419
237	0xbe38b267	-0.18036805
238	0x3e13d84c	0.1443798
239	0xbeb6d9a3	-0.3571292
240	0xbdd77a72	-0.105214015
241	0xbf02d0b7	-0.51099724
242	0x3e3473a7	0.17622243
243	0x3e6c5b66	0.2308174
244	0x3dc0dc22	0.09416987
245	0xbd95cb22	-0.07314135
246	0x3d9733f5	0.07382957
247	0x3e1d4ed2	0.15362099
248	0xbedecac5	-0.43514076
249	0xbeb52042	-0.35376173
250	0xbed2297b	-0.41047272
251	0xbcad9bf0	-0.02119252
252	0xbdfe0962	-0.124041334
253	0x3de56191	0.1120025
254	0xbda3c074	-0.07995692
255	0x3e48448f	0.19557403

fc3.bias f4 [4]
0	0x3ed64486	0.41849154
1	0x3eaf6841	0.34259227
2	0x3e84ef67	0.259639
3	0x3e850744	0.25982106
