checkpoint.pth (torch_old, 28405 bytes, 6 tensors)

fc1.weight f4 [64, 37]
0	0xbdcd5784	-0.10026458
1	0x3d046303	0.032320987
2	0xbe149f65	-0.14513929
3	0xbda8ad51	-0.082361825
4	0xbd6d0263	-0.057863604
5	0x3dc2f03c	0.09518477
6	0xbd82b9a8	-0.06383067
7	0x3d9c254c	0.07624301
8	0xbe22e67f	-0.1590824
9	0xbe2adb67	-0.16685258
10	0x3e84ba0c	0.25923193
11	0xbf252a2c	-0.64517474
12	0xbec76d1b	-0.38950428
13	0xbf02cbe5	-0.5109237
14	0xbfe7e9a3	-1.8118175
15	0xbc32110e	-0.010868324
16	0xbd25c36b	-0.04046957
17	0x3d8072f8	0.062719285
18	0x3d979e60	0.074032545
19	0x3e0513f6	0.12995896
20	0x3d9dfdc8	0.077144206
21	0x3ce9d114	0.028542079
22	0x3d6a8b9d	0.05726205
23	0x3d3b3f4c	0.04571466
24	0x3bddc8ca	0.0067683207
25	0x3dab2d46	0.083582446
26	0x3b62b6a0	0.0034593716
27	0xbc22c23d	-0.009934005
28	0x3cae89b9	0.021305906
29	0x3e816e01	0.2527924
30	0x3c9d235f	0.019181905
31	0x3d4e7c47	0.05041149
32	0xbe5c1f19	-0.21496238
33	0xbe2a1f38	-0.16613472
34	0xbda49db5	-0.08037893
35	0x3d3de02a	0.046356358
36	0x3cb35a99	0.021893786
37	0x3c92163b	0.017832866
38	0x3dd51d12	0.10405935
39	0x3e17f713	0.14840345
40	0x3dbb57d1	0.09147609
41	0xbdbdf5cd	-0.092753984
42	0xbd620b68	-0.05518666
43	0xbe4480a2	-0.19189695
44	0x3be7b464	0.007071065
45	0xbd9031fd	-0.070407845
46	0x3d70e5e6	0.058813
47	0xbc9de96c	-0.019276343
48	0xbd08b6ad	-0.03337734
49	0x3bf8b97b	0.0075904704
50	0x3e80920e	0.2511143
51	0x3ea6ee3d	0.32603636
52	0x3e5d48f9	0.21609868
53	0xbef7c753	-0.4839426
54	0xbd58aa51	-0.0528968
55	0xbdfc0191	-0.12304986
56	0xc0225f04	-2.5370493
57	0xbde47fdc	-0.111572
58	0xbde65cd1	-0.11248172
59	0xbddee795	-0.108840145
60	0xbc857169	-0.01628943
61	0xbc446e88	-0.011989243
62	0xbcf844e3	-0.030306285
63	0xbe16bde0	-0.14720869
64	0x3dc7c1ae	0.09753738
65	0xbdef8de2	-0.11696984
66	0xbe59952d	-0.21248312
67	0x3d7db879	0.061943505
68	0x3dd85e9d	0.10564921
69	0x3e1f197a	0.15537062
70	0xbd71ce88	-0.059034854
71	0xbc30c70e	-0.010789646
72	0x3c9cdd44	0.019148476
73	0x3c2bed4a	0.010493586
74	0xbd2f2afa	-0.042765595
75	0x3cbae078	0.022812113
76	0x3e23fc57	0.16014229
77	0x3e4619f8	0.19345844
78	0x3d3c6ae7	0.046000388
79	0xbef43342	-0.47695357
80	0x3e0a0f56	0.13482413
81	0x3e4c9a3b	0.19980709
82	0xbdc32e80	-0.095303535
83	0xbd179cad	-0.037014652
84	0x3e8e35a4	0.277753
85	0xbe4709c5	-0.1943732
86	0xbdac3505	-0.0840855
87	0xbe1589a3	-0.14603285
88	0xbf24771f	-0.64244264
89	0xbe63e153	-0.22253923
90	0x3e3c7a44	0.18406016
91	0x3de98e51	0.11404098
92	0x3d6433ab	0.055713337
93	0x3e2ee704	0.17080313
94	0xbe43f184	-0.191351
95	0xbceff8ab	-0.029293379
96	0x3cb541a9	0.022126036
97	0xbcd96cc5	-0.026541123
98	0x3e147987	0.14499484
99	0xbede0026	-0.43359488
100	0x3e43b18d	0.19110699
101	0x3e2ff661	0.1718383
102	0x3d992d1b	0.07479306
103	0xbe6736bd	-0.22579475
104	0xbe1dcfd2	-0.15411308
105	0xbd624cb3	-0.055248927
106	0xbd7412f6	-0.059588395
107	0xbe0ecc30	-0.13945079
108	0x3e0bf94a	0.13669315
109	0xbd53a119	-0.051667307
110	0xbc996ada	-0.018727709
111	0x3e7a3cb6	0.24437222
112	0x3d8b3e8e	0.06799041
113	0x3c6b3ba6	0.014357483
114	0x3d90d88a	0.070725515
115	0xbe092552	-0.13393143
116	0xbe00bc9e	-0.12571952
117	0x3eaea230	0.34108114
118	0x3e48b5bb	0.19600575
119	0xbe2eec39	-0.170823
120	0xc0354b7c	-2.8327322
121	0x3d7fecf3	0.06248183
122	0x3d91eeb5	0.07125608
123	0x3d0081a8	0.03137365
124	0x3cfa0372	0.030519221
125	0xbda84887	-0.082169585
126	0x3d30134c	0.042987153
127	0xbd4a9f3d	-0.049468268
128	0xbca1f2b8	-0.019769058
129	0xbe8b029c	-0.27150428
130	0xbe1079a1	-0.14108898
131	0x3e73d6e1	0.23812439
132	0xbddaf720	-0.106916666
133	0x3cd0917e	0.025460001
134	0xbd5a128d	-0.053240348
135	0xbe837e45	-0.25682274
136	0x3e0082d2	0.12549904
137	0x3b8b260e	0.00424648
138	0x3d84a2d0	0.064763665
139	0xbda596b3	-0.08085384
140	0x3dc0664b	0.09394511
141	0x3e4046b5	0.18776973
142	0x3eea776a	0.4579423
143	0x3daf29fa	0.08552928
144	0xbe6d005a	-0.23144665
145	0xbed1ce6d	-0.40977803
146	0x3d1d91dc	0.03846918
147	0xbc66a9f1	-0.014078603
148	0xbd31dbe7	-0.043422606
149	0xbeb51041	-0.35363963
150	0xbda518f0	-0.08061397
151	0xbf02f517	-0.5115523
152	0x3e4a4f05	0.19756706
153	0xbd72c2f7	-0.059267964
154	0x3e4f88e6	0.20267066
155	0xbe045762	-0.12923959
156	0xbea6cba1	-0.32577232
157	0xbe8b4fc1	-0.27209285
158	0x3cb581be	0.022156592
159	0xbe63d5cc	-0.22249526
160	0x3cad8393	0.021180904
161	0xbea9bde5	-0.3315269
162	0xbee1fe3f	-0.44139287
163	0xbe9b8fb8	-0.30383086
164	0x3dbc9bef	0.092094295
165	0xbe8e3c28	-0.2778027
166	0x3e592826	0.21206722
167	0x3ebfb1d7	0.3744037
168	0xbdef562d	-0.116863586
169	0xbec3ff86	-0.38280886
170	0xbb3f24c1	-0.0029166194
171	0x3dda5bc3	0.106620334
172	0xbeb72990	-0.35773897
173	0x3c213f96	0.00984182
174	0xbda44037	-0.080200605
175	0x3c6e6edf	0.014552801
176	0xbebad71e	-0.36492246
177	0xbd87d24c	-0.06631908
178	0x3d643dad	0.05572288
179	0xbe0127fe	-0.12612912
180	0xbc4ef9ca	-0.012632797
181	0xbf06b2fb	-0.5261685
182	0x3e837b1d	0.25679865
183	0xbd60d5d6	-0.05489143
184	0x3c845052	0.016151581
185	0x3c0a00da	0.008423055
186	0xbdc8bd9f	-0.09801792
187	0xbc5c353d	-0.013440427
188	0xbdcae1a0	-0.09906316
189	0x3d772712	0.060339995
190	0x3e47232c	0.19447011
191	0x3df4432e	0.11926876
192	0xbe1281ab	-0.14307277
193	0xbe555f29	-0.20837082
194	0xc047aa9a	-3.1197877
195	0xbd8713f8	-0.065956056
196	0xbe27bb3f	-0.16380022
197	0xbdb4da0c	-0.08830652
198	0xbb0b88f9	-0.002129136
199	0x3e1c96a3	0.15291838
200	0xba9e2f14	-0.0012068474
201	0x3d379d79	0.044827912
202	0xbd70389d	-0.05864774
203	0xbda0871f	-0.07838272
204	0xbd1aa54a	-0.03775529
205	0x3e008a24	0.12552696
206	0x3d45f51b	0.048329454
207	0x3d10314e	0.03520327
208	0xbd473366	-0.048633
209	0x3d560691	0.052252356
210	0xbd337d85	-0.043820877
211	0xbd8cf667	-0.06882935
212	0xbc971294	-0.018441476
213	0xbd97765d	-0.07395623
214	0xbd2b2c6f	-0.041790422
215	0xbccb9619	-0.024851846
216	0xbd02abe8	-0.031902224
217	0xbdf21abd	-0.11821506
218	0x39357efc	0.0001730881
219	0x3d3f9d82	0.04678107
220	0x3bba495d	0.005685015
221	0x3d06eb96	0.032939516
222	0x3df99407	0.12186437
223	0xbe4cc84e	-0.19998285
224	0xbd2d39cf	-0.04229146
225	0xbcb1b324	-0.021691866
226	0xbf2bb74e	-0.67076576
227	0xbe1c04c6	-0.15236196
228	0xbe0f916c	-0.14020318
229	0x3e448371	0.19190766
230	0xbdbae7fb	-0.09126278
231	0x3c54487e	0.012956737
232	0x3e2a77a3	0.166472
233	0x3e2aef25	0.16692789
234	0x3e297321	0.16547824
235	0xbead9429	-0.339021
236	0x3ea8b735	0.32952276
237	0xbe34c95a	-0.17654935
238	0x3e8f6121	0.2800379
239	0x3d0a7ecd	0.033812333
240	0xbdb260a7	-0.08709841
241	0x3dc79417	0.09745043
242	0x3e1720eb	0.14758651
243	0x3c8d8b93	0.017278468
244	0x3d8558cd	0.06511078
245	0xbeb7770f	-0.35833022
246	0xbe0a3515	-0.13496812
247	0xbd4fcb6d	-0.05073111
248	0xbd844163	-0.06457784
249	0x3e0ac8a6	0.13553104
250	0xbea655a8	-0.32487226
251	0xbda050d0	-0.07827914
252	0x3e399c3a	0.18126002
253	0xbe0c26e9	-0.13686718
254	0xbd868d8a	-0.06569965
255	0xbdfd44f8	-0.1236667

fc1.bias f4 [64]
0	0x3e234cf1	0.1594732
1	0xbd2ea0e2	-0.0426339
2	0xbe3843f5	-0.17994674
3	0x3ca19a26	0.019726824
4	0x3d880533	0.06641617
5	0xbdb69fb9	-0.089171834
6	0xbdbe2699	-0.09284706
7	0xbc721698	-0.014775895
8	0x3d86bc2f	0.06578862
9	0xbe5b4d69	-0.21416248
10	0x3c864202	0.016388897
11	0x3e3cf136	0.1845139
12	0x3dcd5b6c	0.10027203
13	0x3bf5a0c2	0.0074959705
14	0x3ae05c86	0.0017117418
15	0x3ca9f54c	0.02074685
16	0x3dd7f80c	0.10545358
17	0x3d8893f4	0.06668845
18	0xbc804c0b	-0.01566126
19	0xbe5642c3	-0.20923905
20	0xbe463499	-0.19356002
21	0x3e42bb05	0.19016655
22	0xbd68de89	-0.05685285
23	0xbcfea035	-0.031082252
24	0xbdca2142	-0.09869625
25	0x3cdd1bd6	0.026990812
26	0xbdd07c27	-0.1017993
27	0xbe361d5a	-0.17784634
28	0x3e27909a	0.16363755
29	0x3e13dd03	0.14439778
30	0xbd985c71	-0.07439507
31	0xbdfcf015	-0.123504795
32	0x3e1e38a2	0.15451291
33	0xbd3a5048	-0.04548672
34	0xbe0d0e86	-0.13775072
35	0x3e218dee	0.15776798
36	0xbd0bfd04	-0.03417684
37	0x3d831650	0.0640074
38	0x3c90a5e5	0.01765723
39	0xbe26b936	-0.1628159
40	0xbd1f5937	-0.03890344
41	0xbd66840f	-0.056278285
42	0xbb32d66b	-0.0027288448
43	0x3dbbaa5a	0.09163351
44	0xbd26e221	-0.040742997
45	0xbe00ae94	-0.12566596
46	0xbd38e18b	-0.04513697
47	0xbe13658e	-0.14394209
48	0xbeae0092	-0.3398481
49	0x3e22944b	0.15876882
50	0xbe8199a7	-0.2531254
51	0x3deee1a6	0.11664133
52	0xbc247ef7	-0.010040036
53	0xbcc5d13d	-0.024147624
54	0xbddeeffa	-0.10885616
55	0xbd47625e	-0.048677795
56	0x3e014ffa	0.12628165
57	0xbd8182a0	-0.06323743
58	0xbdf05367	-0.11734658
59	0x3d0d44dd	0.0344895
60	0xbd99fa6e	-0.07518469
61	0x3d44e7f8	0.048072785
62	0x3db2d00e	0.087310895
63	0xbd078069	-0.033081446

fc2.weight f4 [64, 64]
0	0xbeaa7438	-0.33291793
1	0xbd16909d	-0.036759008
2	0x3d4982a1	0.049196843
3	0x3dcd744a	0.10031946
4	0xbf0eaae8	-0.5572953
5	0xbe71cec0	-0.23614025
6	0x3caf3e37	0.021391971
7	0xbef583ba	-0.47952062
8	0x3d9ca952	0.07649483
9	0x3d979d78	0.07403082
10	0xbe801258	-0.25013995
11	0xbece204d	-0.4025902
12	0x3de2c17b	0.1107206
13	0x3e378967	0.17923509
14	0xbe51702b	-0.20452945
15	0xbef5540e	-0.4791569
16	0xbd464177	-0.048402276
17	0xbd3f097f	-0.046639916
18	0x3d36ddc4	0.044645086
19	0xbe1c2c62	-0.15251306
20	0x3e4099a2	0.18808606
21	0xbdeeba61	-0.11656643
22	0x3d6789f4	0.056528047
23	0xbe4efbaf	-0.20213197
24	0x3d25b602	0.04045678
25	0x3ba30b7c	0.0049757343
26	0x3d4880d7	0.048950996
27	0x3cac8ebf	0.02106416
28	0xbe3ec64f	-0.18630336
29	0xbea9e653	-0.33183536
30	0xbe94b278	-0.2904241
31	0xbe8d1c8d	-0.27560845
32	0x3e8f68bf	0.28009602
33	0xbd8f5a18	-0.06999606
34	0xbed90df8	-0.4239347
35	0x3e77cbc9	0.24198832
36	0xbdd78ff6	-0.10525505
37	0xbdc4373d	-0.09580848
38	0xbe64d30b	-0.22346132
39	0xbe9ae83d	-0.3025531
40	0xbed5876b	-0.41704878
41	0xbf0a5342	-0.5403329
42	0x3e848f3f	0.25890538
43	0xbe6ddee8	-0.23229563
44	0xbd347965	-0.044061083
45	0xbe0389ae	-0.1284549
46	0x3d2a8912	0.041634627
47	0x3e36b0c3	0.17840867
48	0x3d954cd0	0.072900414
49	0xbee2d772	-0.44304997
50	0xbe70d88c	-0.23520106
51	0xbe1feda8	-0.15618002
52	0xbdf0c597	-0.11756437
53	0xbe6bf74c	-0.23043555
54	0xbe88b7c4	-0.26702702
55	0x3e42b122	0.19012883
56	0xbc01be3c	-0.007918891
57	0x3c1abae4	0.009443972
58	0xbe45d986	-0.1932126
59	0x3e36829b	0.1782326
60	0xbe03bee5	-0.12865789
61	0xbe4a441d	-0.19752546
62	0x3e1c4d96	0.15263972
63	0xbd5ce538	-0.053929538
64	0x3d3f3482	0.046680935
65	0x3cbe6130	0.023239702
66	0x3e21525f	0.15754078
67	0x3e99dc83	0.3005105
68	0x3da7e31c	0.081976146
69	0x3e43ccc9	0.19121088
70	0x3d27aedb	0.04093824
71	0x3e1c86e0	0.15285826
72	0xbdcca732	-0.099928275
73	0x3c8e0777	0.017337544
74	0xbcfaa534	-0.030596353
75	0x3eb75db1	0.35813668
76	0x3c66ebb1	0.014094279
77	0xbbafe440	-0.0053677857
78	0xbd90e755	-0.07075373
79	0x3d2fd3b6	0.042926513
80	0xbbaa127e	-0.0051901927
81	0xbddc1c62	-0.10747601
82	0xbd2cba82	-0.042170055
83	0xbdce53a0	-0.10074544
84	0xbbc1a1c3	-0.005909176
85	0x3d787ffc	0.06066893
86	0xbdd60586	-0.10450272
87	0xbd8f7e82	-0.07006551
88	0x3c8166b9	0.015796052
89	0xbdee4c6a	-0.116356686
90	0xbe23a3b5	-0.15980418
91	0xbeb18c35	-0.34677282
92	0x392a3ae6	0.00016234405
93	0x3e6d9494	0.2320121
94	0x3e3add11	0.18248393
95	0x3d12ad0b	0.035809558
96	0xbdbe5dfc	-0.0929527
97	0x3c927aa9	0.017880755
98	0x3cb073de	0.021539625
99	0xbcb3f28b	-0.02196624
100	0xbdeb9d33	-0.11504593
101	0x3d81abaa	0.063315704
102	0xbc06d5d4	-0.008229692
103	0xbc80898a	-0.015690584
104	0xbdb343d8	-0.087531745
105	0x3e3408ec	0.17581528
106	0xbdbc07fd	-0.09181211
107	0xbd0b980b	-0.034080546
108	0xbe32178b	-0.17391793
109	0x3d6036e7	0.05473986
110	0xbdb446d6	-0.088025734
111	0xbd25cb77	-0.040477242
112	0xbd91bf5e	-0.071165785
113	0xbd869232	-0.06570853
114	0xbdb90ecd	-0.09036026
115	0x3ed2cc04	0.41171277
116	0xbd7483a9	-0.059695873
117	0x3d4de916	0.050271116
118	0xbd6e6ffc	-0.058212265
119	0xbcf3764e	-0.029719498
120	0xbd214b4a	-0.039378442
121	0xbe48aa06	-0.19596109
122	0x3e7469c5	0.23868473
123	0x3d57435e	0.05255448
124	0xbe6b36b6	-0.2297009
125	0x3d98ac0e	0.07454692
126	0xbe47a862	-0.19497827
127	0xbdd252f5	-0.10269729
128	0x3ebd1e93	0.3693739
129	0xbe1c4e39	-0.15264215
130	0x3d2756b1	0.04085416
131	0xbe0b6a4f	-0.13614772
132	0x3d5b04aa	0.053471245
133	0x3ec7c7e5	0.39019695
134	0xbec6d3cd	-0.38833466
135	0xbe9000ca	-0.28125602
136	0xbe0b1458	-0.1358198
137	0x3e1fe0eb	0.15613143
138	0xbeb2efe6	-0.34948653
139	0xbf0548cc	-0.52064204
140	0xbe8d06b4	-0.27544177
141	0xbe012456	-0.12611517
142	0x3ec93e4f	0.3930535
143	0xbec0ce0f	-0.3765721
144	0xbf1ca9f3	-0.6119682
145	0xbcf6164e	-0.030039933
146	0xbc3d1e3a	-0.011542851
147	0xbd2da604	-0.042394653
148	0x3bd88a2b	0.006608268
149	0xbe9893c6	-0.29800242
150	0xbdc4166f	-0.09574591
151	0xbdd71b18	-0.105032146
152	0xbc584886	-0.013200885
153	0xbd268546	-0.040654443
154	0x3e50f6bc	0.20406622
155	0xbe730d46	-0.23735532
156	0x3de5022f	0.11182057
157	0xbef7ffe9	-0.4843743
158	0xbdc51c5c	-0.0962455
159	0xbeca0015	-0.39453188
160	0xbe24b486	-0.16084489
161	0xbe2dc0b8	-0.16968048
162	0xbea9a32e	-0.3313231
163	0x3e9e1e1e	0.30882353
164	0xbd7dc640	-0.061956644
165	0xbd833100	-0.064058304
166	0xbbc69561	-0.006060288
167	0xbea0cf1c	-0.31408012
168	0x3e56c939	0.20975198
169	0xbe82a536	-0.2551667
170	0x3e5899b1	0.21152379
171	0x3e382a4a	0.17984882
172	0xbe000586	-0.12502107
173	0xbc8cf0cb	-0.017204663
174	0x3dc2a396	0.09503858
175	0xbe63257e	-0.22182271
176	0x3e0fe86c	0.14053506
177	0xbe30b223	-0.17255454
178	0xbebb3f33	-0.36571655
179	0xbd4d02d4	-0.050051525
180	0xbe75fdc6	-0.24022588
181	0x3d97da7f	0.07414722
182	0xbdef61fb	-0.1168861
183	0x3d807072	0.06271447
184	0x3e51f6d0	0.20504308
185	0xbe7f5910	-0.24936318
186	0xbe2d35ff	-0.16915129
187	0x3d0a7780	0.03380537
188	0xbe1efccc	-0.15526122
189	0xbf17f218	-0.5935378
190	0x3eb8de36	0.36107033
191	0xbf1d66e0	-0.614851
192	0x3ef15292	0.4713331
193	0xbf01d95e	-0.507223
194	0x3d2289e2	0.039682277
195	0xbe532bfd	-0.20622249
196	0x3e4eb3e9	0.20185818
197	0xbd4c9725	-0.04994883
198	0xbe2a89eb	-0.16654174
199	0xbeb399b0	-0.35078192
200	0x3d0fa486	0.03506901
201	0xbdf5d3a2	-0.120032564
202	0xbe64c4ee	-0.22340748
203	0xbe45a0a8	-0.19299567
204	0xbc87ec90	-0.016592294
205	0xbed3c5b2	-0.41361767
206	0x3f23efed	0.6403797
207	0xbe131a52	-0.14365509
208	0xbe459d5f	-0.19298314
209	0xbf54eb16	-0.8317121
210	0xbe06e779	-0.13174237
211	0xbed7d4a4	-0.4215442
212	0xbd245c1d	-0.04012691
213	0xbe334038	-0.17504966
214	0xbeaf137f	-0.34194562
215	0x3d5a3101	0.05326939
216	0xbcf6e540	-0.030138612
217	0x3caa4f37	0.020789726
218	0x3d89a3af	0.06720673
219	0xbc9a728f	-0.018853454
220	0x3e82a3e9	0.2551568
221	0xbe36b3a8	-0.17841971
222	0xbdb43242	-0.087986484
223	0xbc44e4af	-0.012017413
224	0x3dcf91f0	0.10135257
225	0x3d45b008	0.04826358
226	0x3dbecaf8	0.09316057
227	0x3e895703	0.26824197
228	0xbd232967	-0.039834406
229	0xbe94ffa2	-0.29101282
230	0xbea06f06	-0.31334704
231	0x3da74e05	0.08169178
232	0xbf29f767	-0.6639313
233	0xbdd18670	-0.1023072
234	0x3e25c028	0.16186583
235	0x3e0e14c2	0.13875106
236	0xbcc25d8b	-0.023726245
237	0x3deed5c0	0.11661863
238	0xbe89fd6e	-0.26951164
239	0x3d45accc	0.048260495
240	0x3e5dcb6e	0.21659634
241	0x3dc6d4b4	0.09708539
242	0xbe7abb7f	-0.24485587
243	0xbed31e98	-0.4123428
244	0x3e4fc9a1	0.20291759
245	0xbf069e45	-0.5258525
246	0x3dbfad4c	0.09359226
247	0xbe8a44ea	-0.27005702
248	0xbe59a6f7	-0.21255098
249	0xbd9adb36	-0.075613424
250	0xbec64e78	-0.38731742
251	0x3e843dbd	0.25828353
252	0xbe1b8808	-0.1518861
253	0x3caf7267	0.021416856
254	0xb98d1517	-0.0002690933
255	0xbf0dd955	-0.5540975

fc2.bias f4 [64]
0	0xbe10f810	-0.14157128
1	0xbe5ca9fc	-0.21549219
2	0x3d6b34be	0.057423346
3	0xbd4b4bdd	-0.049632896
4	0x3da2de56	0.079525635
5	0xbdbc6db5	-0.092006125
6	0xbde1a40d	-0.11017618
7	0x3dd351c9	0.10318334
8	0xbd1111d7	-0.035417404
9	0x3e1615b6	0.1465672
10	0xbda129a3	-0.0786927
11	0xbc5b1c73	-0.013373482
12	0x3d90f97d	0.07078836
13	0xbe28ec30	-0.16496348
14	0xbd885ff5	-0.06658927
15	0xbc5e568d	-0.01357044
16	0xbddf82fe	-0.10913657
17	0x3b8598ad	0.0040770383
18	0xbe3b3bfc	-0.18284601
19	0x3d99c4f4	0.07508269
20	0xbd619e3e	-0.055082552
21	0x3e837543	0.256754
22	0xbe38aae9	-0.18033947
23	0xbdd7beb7	-0.10534423
24	0x3b78cf55	0.0037965376
25	0xbe3c9dba	-0.18419543
26	0x3d174cad	0.036938358
27	0xbe1db455	-0.15400822
28	0xbde5eed8	-0.112271965
29	0x3d2045d8	0.03912911
30	0x3bb4cc03	0.005517484
31	0xbdaec3ee	-0.08533464
32	0xbdafbf10	-0.08581364
33	0x3dc930a8	0.098237336
34	0xbd8a4057	-0.06750553
35	0xbd781024	-0.060562268
36	0xbe018e97	-0.1265205
37	0xbe3efacb	-0.18650357
38	0xbd3feae3	-0.046854865
39	0xbdba3139	-0.0909142
40	0xbe7d3cb1	-0.24730183
41	0x3e6f47a0	0.23367167
42	0x3d96e8e2	0.073686376
43	0xbdd9c5d3	-0.10633435
44	0x3d91af38	0.071134984
45	0xbe227fd0	-0.15869069
46	0x3a3ea920	0.00072731264
47	0xbe3baec0	-0.1832838
48	0xbc555002	-0.013019564
49	0xbe06ad9c	-0.13152164
50	0xbe47e4b9	-0.19520845
51	0xbca3929d	-0.019967372
52	0xbe386e8e	-0.18010923
53	0xbdc3f82b	-0.09568819
54	0xbd1b3be2	-0.037898906
55	0xbe17964f	-0.14803432
56	0xbe661345	-0.22468288
57	0xbe8fc7a7	-0.2808201
58	0xbdaeaea4	-0.08529404
59	0xbdbbbad9	-0.09166498
60	0xbc8a5764	-0.016887374
61	0x3e063689	0.13106741
62	0x3d8efbb9	0.06981606
63	0xbe86d2b0	-0.26332617

fc3.weight f4 [4, 64]
0	0x3cb29e77	0.021804078
1	0x3e4054f7	0.18782412
2	0x3df6c6bd	0.12049625
3	0x3e2a689a	0.16641465
4	0x3dae636e	0.085150585
5	0xbe269661	-0.16268303
6	0xbcc13893	-0.023586547
7	0xbe8af0b1	-0.27136758
8	0x3d47ad7b	0.04874943
9	0xbb9025db	-0.004399044
10	0x3b750fe4	0.0037393505
11	0x3da3a7b2	0.0799097
12	0x3ec26105	0.37964645
13	0x3c51092e	0.012758536
14	0x3d000afa	0.031260468
15	0x3e3df414	0.1855014
16	0x3d92bb81	0.0716467
17	0x3d544d19	0.05183134
18	0x3e2ed2d2	0.17072609
19	0x3e1e6249	0.1546718
20	0x3dc78d7c	0.09743783
21	0x3dc1289f	0.09431576
22	0x3dd97a06	0.10618977
23	0x3d3c4085	0.045959968
24	0x3d061f7e	0.032744877
25	0xbe526904	-0.20547873
26	0xbf88352d	-1.0641228
27	0xbe0afb79	-0.13572492
28	0x3eff3847	0.49847624
29	0x3ea597f3	0.3234249
30	0xbe95f5ff	-0.29289243
31	0x3d7a6cde	0.06113898
32	0x3e176d6a	0.14787832
33	0xbda25faf	-0.079284064
34	0xbcf58ee8	-0.02997537
35	0x3ee4687e	0.4461097
36	0x3e3e24e0	0.18568754
37	0xbe0338ed	-0.12814684
38	0xbe83804e	-0.25683826
39	0x3d828121	0.06372286
40	0x3e2d3904	0.16916281
41	0x3d756cfa	0.05991838
42	0x3c99f36d	0.018792832
43	0xbecc0b2b	-0.3985227
44	0x3dcc095a	0.09962721
45	0xbdc0a56b	-0.09406551
46	0x3e168804	0.14700323
47	0x3df4f538	0.11960834
48	0xbe76326d	-0.24042673
49	0xbeb4c4f3	-0.3530651
50	0x3e199466	0.14998016
51	0x3d2e7106	0.042588256
52	0x3e71a861	0.23599388
53	0x3e7a49f2	0.2444227
54	0x3e06f174	0.13178045
55	0xbf01bb54	-0.50676465
56	0xbec87c71	-0.3915744
57	0xbe06045b	-0.13087599
58	0x3e749ff7	0.23889147
59	0x3e5ef047	0.21771346
60	0xbec1aee5	-0.37828746
61	0x3dc637e0	0.09678626
62	0xbe581ba7	-0.21104299
63	0xbe46946d	-0.19392557
64	0x3ebd957a	0.37028104
65	0x3e52a7e5	0.20571859
66	0x3eabfbd9	0.33590582
67	0x3e9ec9fe	0.31013483
68	0x3e08d106	0.13360986
69	0xbe624655	-0.22097142
70	0x3cda2892	0.026630674
71	0xbd83a860	-0.06428599
72	0x3d356ba4	0.044292107
73	0x3c83bf0e	0.016082313
74	0x3e4da2ea	0.20081678
75	0xbdc8c336	-0.098028585
76	0x3e193ed9	0.1496538
77	0x3e6dfaee	0.23240253
78	0xbdd4f69c	-0.103985995
79	0xbccc980b	-0.024974843
80	0xbd22b313	-0.03972156
81	0x3ebd873a	0.37017232
82	0xbea40918	-0.32038188
83	0x3d886548	0.06659943
84	0x3d95006d	0.07275472
85	0x3d7061ab	0.058686893
86	0xbdb736e5	-0.08946017
87	0x3e592355	0.21204884
88	0x3d4f3eae	0.050596885
89	0xbe856171	-0.26050904
90	0xbd61f6e3	-0.05516709
91	0xbdbb9045	-0.091583766
92	0x3ecb0e2e	0.39659256
93	0x3e4a4840	0.19754124
94	0xbe34f6ef	-0.17672323
95	0x3dfe3a5e	0.124134764
96	0xbe568ea6	-0.20952854
97	0xbdb0ac54	-0.08626619
98	0xbbafa629	-0.005360384
99	0x3ea774ea	0.32706386
100	0x3d979500	0.07401466
101	0xbec97e25	-0.39354053
102	0xbdf3404e	-0.118774995
103	0x3db31246	0.0874372
104	0x3eb66622	0.35624796
105	0x3d10a975	0.035317857
106	0xbdc24951	-0.0948664
107	0xbca31a2a	-0.019909937
108	0x3e124948	0.14285767
109	0xbdc74163	-0.097292684
110	0x3e3f9c52	0.18711975
111	0xbdb4b207	-0.088230185
112	0xbda957b4	-0.08268681
113	0xbe852ede	-0.2601232
114	0x3ea96fb5	0.33093038
115	0x3e353bfb	0.17698662
116	0xbe196243	-0.1497889
117	0x3db6fd73	0.0893506
118	0x3d1cc39e	0.038272493
119	0xbe362d7e	-0.17790791
120	0xbed28983	-0.41120538
121	0xbea1ea63	-0.31624135
122	0xbd2667e4	-0.04062642
123	0x3db0080e	0.08595286
124	0xbe81e1f2	-0.25367695
125	0x3c932c05	0.017965326
126	0xbbcd4a82	-0.0062649855
127	0xbe88b3b7	-0.26699612
128	0xbed2df9c	-0.41186225
129	0x3dbfcdbb	0.09365412
130	0x3ea1422d	0.314958
131	0x3f5b3744	0.85631204
132	0x3e47c9c1	0.19510557
133	0xbe63c9a3	-0.22244887
134	0x3eb494bb	0.35269722
135	0x3b586834	0.0033021094
136	0xbe102213	-0.14075498
137	0xbcff1b33	-0.0311409
138	0xbf09d784	-0.53844476
139	0x3e7bcf54	0.24590808
140	0x3e5fb279	0.21845426
141	0xbea49aec	-0.32149446
142	0xbe79ebf5	-0.24406417
143	0x3ea1de00	0.31614685
144	0xbd34e890	-0.0441671
145	0xbec767eb	-0.3894647
146	0xbeaa96a0	-0.33318043
147	0x3c3703f7	0.011170379
148	0x3dff9029	0.12478668
149	0x3e312b71	0.17301728
150	0xbe98d1e8	-0.29847646
151	0xbe3bc1ea	-0.18335691
152	0x3e5f5180	0.21808434
153	0xbeca096d	-0.39460316
154	0xbe9bbc4a	-0.3041709
155	0xbe9cca0c	-0.306229
156	0x3c9b2157	0.018936796
157	0x3f18a44c	0.596257
158	0xbecd2216	-0.40065068
159	0x3dd3153c	0.103067845
160	0xbe8c7853	-0.2743555
161	0xbe2b9206	-0.16754922
162	0x3e6c172c	0.23055714
163	0xbcdcab6f	-0.026937215
164	0x3e1360e0	0.14392424
165	0xbf373f7f	-0.7158126
166	0xbeeeb432	-0.46621853
167	0x3e4afeb0	0.19823718
168	0x3eb940e7	0.3618233
169	0x3e2a0fb4	0.16607553
170	0x3e296fd2	0.16546562
171	0x3dd34c9b	0.10317346
172	0x3db0795f	0.086169
173	0xbdf5661f	-0.11982369
174	0x3e2ea3ba	0.17054644
175	0xbc4904db	-0.012269224
176	0x3dd0c0ef	0.10193049
177	0xbecb6be1	-0.39730743
178	0x3e72380f	0.23654197
179	0x3de5dc7e	0.11223696
180	0xbb3a219b	-0.0028401378
181	0xbeb536ed	-0.35393468
182	0x3e947000	0.289917
183	0x3c9d5e6f	0.019210069
184	0xbd313ce4	-0.04327096
185	0x3d3f8694	0.046759203
186	0xbbc40a48	-0.005982671
187	0xbc0f67e8	-0.0087528005
188	0xbd9bae64	-0.07601622
189	0x3d3943e2	0.045230754
190	0xbf0da8cc	-0.5533569
191	0xbe63e658	-0.22255838
192	0x3eac8047	0.33691618
193	0x3e16cf05	0.14727409
194	0x3f09f1f4	0.53884816
195	0xbd6a4586	-0.05719521
196	0x3c95e1fb	0.018296232
197	0x3d0d4633	0.034490775
198	0xbf043a3b	-0.5165135
199	0xbd9adc8e	-0.07561599
200	0x3db36547	0.087595515
201	0x3e02966d	0.12752695
202	0xbef06a70	-0.46956205
203	0xbe60cac0	-0.21952343
204	0xbd510a14	-0.051035002
205	0x3b7f286c	0.0038934005
206	0x3b916a91	0.0044377525
207	0x3e438bf6	0.1909636
208	0x3e8c7a8f	0.27437255
209	0x3ee3bfe4	0.44482338
210	0x3d39ae50	0.045332253
211	0x3df27014	0.118377835
212	0x3e0e6fc6	0.13909826
213	0x3dd48882	0.10377599
214	0xbe72b621	-0.23702289
215	0x3f53e9be	0.8277854
216	0x3e7ca34e	0.24671671
217	0xbe9e8fab	-0.30968985
218	0xbebcd059	-0.36877707
219	0xbd556d90	-0.05210644
220	0x3f164d0d	0.5871132
221	0xbdefce32	-0.117092505
222	0xbf0f4d64	-0.55977464
223	0x3e01aa47	0.12662612
224	0xbee48921	-0.4463587
225	0xbd493385	-0.0491214
226	0x3dc57558	0.09641522
227	0x3da7d24c	0.08194408
228	0xbd4714b8	-0.048603743
229	0x3d74bd76	0.059750997
230	0x3ea12748	0.31475282
231	0x3e8f82e5	0.28029552
232	0x3eed1853	0.4630762
233	0x3ded952a	0.116007164
234	0x3e0370d4	0.1283601
235	0xbef0bcdd	-0.4701909
236	0x3e8ffca4	0.28122437
237	0xbeb6dce6	-0.35715407
238	0x3ded3f45	0.11584333
239	0xbc8fc2d0	-0.017548949
240	0x3e24c43a	0.1609048
241	0xbe525bf2	-0.20542887
242	0x3ef7d710	0.48406267
243	0x3e70da76	0.23520836
244	0x3e2a202a	0.16613832
245	0x3e915190	0.2838254
246	0x3e45302e	0.1925666
247	0xbe7d4bac	-0.24735898
248	0x3c0b1d20	0.008490831
249	0xbeac1513	-0.33609828
250	0xbe516a6a	-0.2045075
251	0xbcb9e091	-0.02269009
252	0xbda5b5d8	-0.080913246
253	0x3db80a5a	0.089863494
254	0xbdfe47d1	-0.12416042
255	0xbea0593d	-0.31318083

fc3.bias f4 [4]
0	0x3e368fa0	0.17828226
1	0x3e0a6f76	0.13519081
2	0x3dbd772e	0.09251247
3	0x3ddf1a24	0.10893658
